finetuning-surrogates/tests/files/example-schnet.pt (torch, 763815 bytes, 57 tensors)

atom_embedding.weight f4 [100, 100]
000000 00 00 00 00 00 00 00 00 00 00 00 00 00 00 00 00
       0.0 0.0 0.0 0.0
000010 00 00 00 00 00 00 00 00 00 00 00 00 00 00 00 00
       0.0 0.0 0.0 0.0
000020 00 00 00 00 00 00 00 00 00 00 00 00 00 00 00 00
       0.0 0.0 0.0 0.0
000030 00 00 00 00 00 00 00 00 00 00 00 00 00 00 00 00
       0.0 0.0 0.0 0.0
000040 00 00 00 00 00 00 00 00 00 00 00 00 00 00 00 00
       0.0 0.0 0.0 0.0
000050 00 00 00 00 00 00 00 00 00 00 00 00 00 00 00 00
       0.0 0.0 0.0 0.0
000060 00 00 00 00 00 00 00 00 00 00 00 00 00 00 00 00
       0.0 0.0 0.0 0.0
000070 00 00 00 00 00 00 00 00 00 00 00 00 00 00 00 00
       0.0 0.0 0.0 0.0
000080 00 00 00 00 00 00 00 00 00 00 00 00 00 00 00 00
       0.0 0.0 0.0 0.0
000090 00 00 00 00 00 00 00 00 00 00 00 00 00 00 00 00
       0.0 0.0 0.0 0.0
0000a0 00 00 00 00 00 00 00 00 00 00 00 00 00 00 00 00
       0.0 0.0 0.0 0.0
0000b0 00 00 00 00 00 00 00 00 00 00 00 00 00 00 00 00
       0.0 0.0 0.0 0.0
0000c0 00 00 00 00 00 00 00 00 00 00 00 00 00 00 00 00
       0.0 0.0 0.0 0.0
0000d0 00 00 00 00 00 00 00 00 00 00 00 00 00 00 00 00
       0.0 0.0 0.0 0.0
0000e0 00 00 00 00 00 00 00 00 00 00 00 00 00 00 00 00
       0.0 0.0 0.0 0.0
0000f0 00 00 00 00 00 00 00 00 00 00 00 00 00 00 00 00
       0.0 0.0 0.0 0.0
000100 00 00 00 00 00 00 00 00 00 00 00 00 00 00 00 00
       0.0 0.0 0.0 0.0
000110 00 00 00 00 00 00 00 00 00 00 00 00 00 00 00 00
       0.0 0.0 0.0 0.0
000120 00 00 00 00 00 00 00 00 00 00 00 00 00 00 00 00
       0.0 0.0 0.0 0.0
000130 00 00 00 00 00 00 00 00 00 00 00 00 00 00 00 00
       0.0 0.0 0.0 0.0
000140 00 00 00 00 00 00 00 00 00 00 00 00 00 00 00 00
       0.0 0.0 0.0 0.0
000150 00 00 00 00 00 00 00 00 00 00 00 00 00 00 00 00
       0.0 0.0 0.0 0.0
000160 00 00 00 00 00 00 00 00 00 00 00 00 00 00 00 00
       0.0 0.0 0.0 0.0
000170 00 00 00 00 00 00 00 00 00 00 00 00 00 00 00 00
       0.0 0.0 0.0 0.0
000180 00 00 00 00 00 00 00 00 00 00 00 00 00 00 00 00
       0.0 0.0 0.0 0.0
000190 4e 9f 2c bf 1a e4 ce 3b 46 07 89 bf 33 a5 2f 3c
       -0.6743058 0.006313813 -1.0705345 0.010720539
0001a0 c1 72 b4 bd ed 55 9b bc 83 8b 0c 3e 5d 13 51 3c
       -0.0881095 -0.018961871 0.13725094 0.012760964
0001b0 d7 9d 81 3e ae 71 b5 3d 3e 4f b8 3c ef d6 e6 bf
       0.25315735 0.08859573 0.022498723 -1.8034343
0001c0 36 22 c4 bd 9d 5b fb 3b fc fa d0 bc 37 69 b4 3e
       -0.09576838 0.0076708333 -0.025510304 0.35236523
0001d0 cf 84 cd 3f 72 7f 8c 3e cd f4 ad bf 70 8e 55 3f
       1.6056155 0.27440983 -1.3590332 0.8342047
0001e0 ae 63 32 3e 3e cd 5f bc a8 4b 22 3f 15 65 19 be
       0.17420837 -0.013659773 0.6339669 -0.14979966
0001f0 af 16 ab be e1 4b 04 3e 6d e5 56 3f 75 e5 32 3f
       -0.33415744 0.1291957 0.83943826 0.69881374
000200 81 c8 26 3b a6 75 3f 3f 3e 1e 8e 3b 15 88 90 bc
       0.00254491 0.7478889 0.0043371012 -0.017643014
000210 6a 78 cb 3f 98 be 3b be 9f c4 83 3c 59 d2 da bb
       1.5896122 -0.18334424 0.016084967 -0.0066779074
000220 24 4e db ba 43 08 90 bf a6 4b a2 bf b1 20 04 40
       -0.0016731662 -1.1252521 -1.2679336 2.0644953
000230 f5 d2 41 3d 50 1b bb bd c0 fc 2d 3f cd 70 85 3e
       0.047320325 -0.09136069 0.6796379 0.26062623
000240 b1 1b 01 bd 6f b2 90 3e 1b c9 ff 3f 62 e9 a3 bc
       -0.03152055 0.28261134 1.9983248 -0.020008747
000250 7a 0b 9e be 90 e6 7b 3f 5a e9 0f 3e 40 40 e6 3e
       -0.3086813 0.98398685 0.1405386 0.44970894
000260 9b 3b c8 3b 7b dd 39 bc 56 14 22 be 2e f1 0c bf
       0.006110621 -0.011344309 -0.1582807 -0.5505551
000270 b4 f8 7e be c5 a2 8a bf 00 b0 86 bf 87 8a 80 3c
       -0.2489956 -1.0830923 -1.0522461 0.015691055
000280 67 c5 24 3d 26 09 47 bc 71 01 05 3d 74 e4 fb 3e
       0.04022732 -0.012148177 0.032472078 0.49197733
000290 08 35 38 39 cd 07 3e 3f ec 6c 17 3f 2d a8 48 be
       0.00017567363 0.74230653 0.59150577 -0.19595404
0002a0 5c 4b 77 bc 1a fc 8c bd f1 f3 b6 38 c4 5e b1 3c
       -0.015093651 -0.06884022 8.723874e-05 0.021651633
0002b0 5a 5a 16 3d 15 4c 4d 3e 89 28 d4 3e 86 4a 78 3e
       0.03670726 0.20048554 0.41437176 0.24247178
0002c0 a1 fa 9d 3e d6 9c 0f bf a8 d7 ef 3f 10 b7 8a 3f
       0.30855277 -0.5609869 1.8737688 1.0837116
0002d0 78 e8 0d be ca a6 22 bf 98 db a4 bc 41 70 18 40
       -0.13858211 -0.6353575 -0.020124242 2.3818514
0002e0 66 45 8c 3e b3 a7 bd bf 74 d7 a9 3e 1c a6 56 bc
       0.27396697 -1.4816803 0.3317219 -0.013101127
0002f0 a6 af 5c bd 5c 5a 02 be 4a e7 cb 3f 31 38 5c be
       -0.05387845 -0.12729782 1.5929959 -0.2150581
000300 d3 16 21 bf 43 ad a3 bd 0b be 64 3e b3 3d 7a 3b
       -0.6292545 -0.079920314 0.2233812 0.0038183748
000310 2f b7 28 3f dc 40 00 be f4 4d 6c bf 39 5e 41 3c
       0.65904516 -0.12524742 -0.9230645 0.01180225
000320 a8 b3 f9 3e 42 48 76 bf bf 36 2e 3f 36 00 c0 3d
       0.4876988 -0.96204007 0.68052286 0.0937504
000330 58 31 19 bf a8 71 1b c0 a6 da 68 be ea 8d 0f bf
       -0.5984092 -2.428812 -0.22739658 -0.5607592
000340 3e 0a 82 bf 30 ab 67 be 8a 42 22 3e 78 df 90 3f
       -1.0159376 -0.22623897 0.15845695 1.1318197
000350 72 91 00 3e b5 56 a0 bf 67 68 19 bf a6 44 2a be
       0.12555483 -1.2526461 -0.5992493 -0.1662775
000360 21 6e 68 3f 90 43 96 be 9d b9 d2 be d0 9f f3 be
       0.90793043 -0.2934842 -0.41157237 -0.47582865
000370 f5 39 65 bf 9d f8 06 40 d8 65 df be 11 f9 d1 be
       -0.8954156 2.1089242 -0.43632388 -0.41010335
000380 75 15 9a be 74 6c d8 bf 5d 5d 98 bf 4a 70 9c be
       -0.30094495 -1.6908097 -1.1903492 -0.3055442
000390 4e ec 59 bf 01 f2 e2 3e 9e 15 2e bf f2 ef 4b 3e
       -0.851262 0.4432526 -0.68001735 0.1991575
0003a0 26 19 57 3e 0c 1f e9 3d 61 27 64 bf b9 9e 3a 3f
       0.21005687 0.11382875 -0.8912259 0.7289844
0003b0 72 d5 ad 3f f6 70 a9 3f 09 8e eb be fe 90 87 be
       1.3580763 1.3237598 -0.46006802 -0.26477808
0003c0 22 a8 a0 be c5 a1 e2 3d 1e 38 c8 bf 94 76 83 3e
       -0.31378275 0.11066011 -1.5642126 0.25676405
0003d0 aa 5e 56 bf 73 44 f7 3e 79 10 d9 3e 66 11 f0 3f
       -0.83738196 0.4829441 0.4239538 1.875531
0003e0 22 8c 4d 3e 3a 68 c3 bf e7 f5 91 3f 48 63 2b 3f
       0.20072988 -1.5266182 1.1403168 0.66948366
0003f0 ba d1 6c be 82 5b be bd 7b 0f b5 bf cb bc a3 3f
       -0.2312688 -0.092947975 -1.4145349 1.279199

basis_expansion.offset f4 [25]
000000 00 00 00 00 00 00 80 3e 00 00 00 3f 00 00 40 3f
       0.0 0.25 0.5 0.75
000010 00 00 80 3f 00 00 a0 3f 00 00 c0 3f 00 00 e0 3f
       1.0 1.25 1.5 1.75
000020 00 00 00 40 00 00 10 40 00 00 20 40 00 00 30 40
       2.0 2.25 2.5 2.75
000030 00 00 40 40 00 00 50 40 00 00 60 40 00 00 70 40
       3.0 3.25 3.5 3.75
000040 00 00 80 40 00 00 88 40 00 00 90 40 00 00 98 40
       4.0 4.25 4.5 4.75
000050 00 00 a0 40 00 00 a8 40 00 00 b0 40 00 00 b8 40
       5.0 5.25 5.5 5.75
000060 00 00 c0 40
       6.0

interactions.0.mlp.0.weight f4 [100, 25]
000000 95 ef 70 be 62 bf a1 3c a0 bc d1 3e 64 ff 83 3e
       -0.23528893 0.019744579 0.40964222 0.25780785
000010 34 92 a1 bd b6 95 7b be 7c 51 91 3e a4 3c fc bd
       -0.07889214 -0.24568829 0.2838248 -0.12316254
000020 2e 30 1f 3e 6e 46 7d bd 59 a6 b1 3d 8e a4 b5 bd
       0.15545723 -0.061834745 0.086743064 -0.08869277
000030 ab 39 43 3e 3d a7 24 be 96 23 25 3e 06 fe 79 bd
       0.19064967 -0.16079421 0.16126856 -0.06103327
000040 a7 52 c8 bc 44 ff 33 3e c8 08 1a be 53 19 b4 3d
       -0.024453474 0.17577845 -0.15042412 0.08793893
000050 a8 7f e5 3d 69 6e b8 bc 30 52 69 be 7f 77 16 be
       0.11205989 -0.022513585 -0.22785258 -0.14694022
000060 cb 58 b9 3f 98 70 c9 bc ee fd 90 3c 4a 49 a2 be
       1.4480222 -0.024589822 0.017699208 -0.3169654
000070 ab 5f 9b be da 45 a0 be 21 c7 94 be 9d bc 69 3f
       -0.30346426 -0.31303293 -0.29058173 0.91303426
000080 21 bb c5 3e bd 28 ad bd 9a bd b8 3d 29 de c0 3e
       0.3861933 -0.08455036 0.09020539 0.37669495
000090 f5 97 31 3e ba 37 37 be bb bb 31 3d 24 47 35 3d
       0.17343123 -0.17892352 0.043391924 0.044257298
0000a0 92 6e bf 3d ea 63 a5 3b 29 b1 80 3d ba d1 58 be
       0.093472615 0.005047311 0.062837906 -0.21173754
0000b0 51 ea 01 bf 50 28 87 be 54 14 44 bf b8 6d 36 bf
       -0.50748163 -0.26397943 -0.7659352 -0.7126117
0000c0 07 d2 9a bf 60 d2 3f c0 68 67 9d 3f e7 37 19 3f
       -1.2095345 -2.9972153 1.2297182 0.59850925
0000d0 77 62 f0 3d 0c 82 9d bd 39 fb 20 3e dd 6c 92 3f
       0.11737531 -0.0769082 0.15720834 1.1439472
0000e0 94 76 e1 3e 33 10 c0 be 71 09 99 3d fd 0e 4e be
       0.4403578 -0.3751236 0.07472504 -0.20122905
0000f0 dd ba 53 be 31 eb 89 3c 8d 1d 0d be c1 13 dd bd
       -0.20676751 0.01683578 -0.13780804 -0.107947834
000100 9c c2 a3 bc 73 15 57 3c e1 73 a7 bd 2b 6f bd bd
       -0.019990258 0.0131276725 -0.08176399 -0.09249719
000110 a5 07 8b be 68 1a 63 be ce 9c 89 be 1f 7a f4 be
       -0.2715427 -0.22178042 -0.26877445 -0.4774942
000120 53 eb 1e bf 25 32 18 bf eb 16 9c bf 8a 5f 41 be
       -0.62077826 -0.59451514 -1.2194494 -0.18884102
000130 a7 42 6e be 1a 3b 8a bb 96 a2 24 bd 28 ad 01 3c
       -0.23267613 -0.0042184712 -0.040194117 0.007914819
000140 2b c9 c4 3d a4 bb e9 bd 9d 31 8b 3d d8 2d 00 3d
       0.09608682 -0.11412743 0.06796572 0.03129372
000150 50 9e 2a 3d c0 06 e1 3c 17 d4 53 3c ed 85 3e 3d
       0.041654885 0.027469039 0.012928984 0.04651444
000160 55 66 da 3d 74 5c cc 3c 28 c4 21 bd 3f e2 b8 3d
       0.106640495 0.024946429 -0.03949371 0.09027528
000170 4c a4 89 be a0 29 97 3e d4 cc 95 be 54 32 72 3d
       -0.2688316 0.29523945 -0.29257834 0.059130028
000180 35 02 54 3e 62 43 bc bd 42 74 11 bf e3 c7 79 be
       0.20703967 -0.0919254 -0.5681802 -0.24392657
000190 15 48 45 bf 88 a1 09 bc 8c e0 3e 3e 8a 61 77 3e
       -0.77063113 -0.008400328 0.18640345 0.24158302
0001a0 02 d4 e6 3d bc ad 8f be 17 aa 1e 3f 12 af 97 be
       0.11270906 -0.28062236 0.61978287 -0.29625756
0001b0 4f 7b b2 bd ba ba 7b 3e 39 fe 16 be 62 9d 08 3e
       -0.087149255 0.2458295 -0.14745416 0.13341287
0001c0 e8 37 f6 3c 6c 4f 2c be ff 1c 82 3e e0 d1 38 be
       0.030055955 -0.16827172 0.25412747 -0.18048811
0001d0 1b 0a 56 3c f7 ac 3c bd 8d ad 42 3e 8d 67 92 bd
       0.013063933 -0.04606339 0.19011517 -0.07148657
0001e0 68 7c 83 be 8e 0b b2 be a5 76 12 bf 5d 45 b4 bf
       -0.25680852 -0.3477444 -0.5721229 -1.4083668
0001f0 80 86 c8 bf 30 59 2d bf 2d 19 4d be 2f 54 a0 bc
       -1.5666046 -0.67714214 -0.20029135 -0.019571392
000200 35 da bf 3e fc dc 88 3e f5 92 d8 bd 2c 9e 08 3e
       0.37471166 0.26731098 -0.10574905 0.13341588
000210 09 51 9c 3e 1a a1 6c be b6 f4 d4 3d 28 02 94 3e
       0.30530575 -0.2310833 0.103982374 0.28907895
000220 48 30 df 3b ef b5 97 3d ee e1 1b be be be 50 bd
       0.0068111755 0.07407748 -0.15222904 -0.050963156
000230 74 23 a3 bc e0 5f 2a be ff 63 64 be 1f 6b 86 3d
       -0.019914366 -0.16638136 -0.2230377 0.065634005
000240 e5 6b aa be f3 58 89 be b3 ef 92 be ee 2e d2 be
       -0.33285442 -0.26825675 -0.286985 -0.4105143
000250 40 34 cb be 76 40 d7 3e 7f 64 f7 3e 73 3f 72 3e
       -0.396883 0.42041367 0.4831886 0.23657016
000260 45 1f 54 be 61 a3 15 be aa c8 fa 3d e1 0d da 3e
       -0.20715053 -0.14613105 0.12245305 0.42588714
000270 ca 69 cc bd 16 fc a7 be cd 2b ce be 04 27 3a 3e
       -0.09981115 -0.32809514 -0.40267792 0.18178946
000280 45 7a 57 3e f2 64 0a be 23 68 92 3c 9c f6 af 3d
       0.21042736 -0.1351507 0.017871922 0.08591959
000290 00 6b bd 3c 4d 92 4c bd fb 8d 73 3d c8 ac 1b 3e
       0.02312231 -0.04994421 0.059461575 0.1520263
0002a0 9d a2 28 be d5 97 a7 3d f0 95 e7 bd 5c 1a 73 be
       -0.16468282 0.081832565 -0.11307895 -0.23740524
0002b0 3d 05 b6 bd 55 43 39 bd 37 7d 3c bf 38 48 81 bd
       -0.08887718 -0.04523023 -0.7362856 -0.06312603
0002c0 09 0e 42 bc 10 bb ad 3e 04 38 bd bc 8c cc 9e bd
       -0.011844167 0.3393178 -0.023098 -0.07753858
0002d0 aa 07 22 3f 5e 1d 38 3f 3d 85 2e be d5 0f b9 be
       0.63292944 0.7191981 -0.17043014 -0.3614489
0002e0 fe e1 f9 be 62 34 e7 3d 9b 42 42 bc c0 c7 12 bd
       -0.4880523 0.11289288 -0.0118567 -0.035835028
0002f0 db 91 1d 3e 42 6b bc bd a6 5f 9d bd 49 67 04 bd
       0.1538767 -0.09200145 -0.07684259 -0.032325063
000300 84 b0 0d bd 89 5c 5a be 44 93 33 bd f9 da 35 bf
       -0.034592167 -0.21324362 -0.043841615 -0.7103725
000310 d5 86 66 bf 91 2e 8a bf 35 9c 6e bf 01 d0 ae bf
       -0.9004949 -1.0795461 -0.93207103 -1.3657228
000320 1c 85 30 3f d0 be e0 3e 41 38 99 3e d2 2f c0 3d
       0.6895311 0.43895578 0.2992573 0.09384121
000330 3f d2 23 be 48 0d bf 3e 91 98 6f 3e 20 d6 9e be
       -0.15998171 0.3731482 0.23398043 -0.3102274
000340 76 d7 71 bc 46 d1 e9 bd d4 96 2c 3e da a5 9b bd
       -0.014760843 -0.11416869 0.16854411 -0.07599993
000350 9b ac 28 bd 36 fe 00 3e d5 f7 fe bd 3d 1e 67 bc
       -0.041180234 0.12596974 -0.12449614 -0.01410633
000360 91 c6 74 3d 9d 0b 13 bd c8 4d ae bd 40 5a cf 3c
       0.05975968 -0.035899747 -0.08510929 0.02531159
000370 a9 26 8b be 0c 53 8c bd 39 38 4a bf 43 d3 77 bf
       -0.27177933 -0.068517774 -0.7899204 -0.96806735
000380 a4 80 99 bf 7f 6c 49 3f bc 3b af 3d 62 8e 11 bf
       -1.1992383 0.78681177 0.08556315 -0.56857884
000390 b6 4e a7 be a1 27 bd be 9d c2 f7 3e 37 8a e1 be
       -0.3267724 -0.36944297 0.48390666 -0.44050762
0003a0 9b 36 02 3e d7 24 94 3e 36 93 88 be b0 72 b5 bd
       0.12716143 0.28934357 -0.26674813 -0.088597655
0003b0 3e 63 93 bd bd c9 fc bc bd 54 2d bd 9b da 92 3d
       -0.07196663 -0.030857915 -0.04231714 0.07170602
0003c0 d8 9f cc 3d 35 55 8d bc 1c d5 a1 bc 29 69 24 3d
       0.09991425 -0.017252544 -0.019754939 0.04013935
0003d0 6c 54 72 3e ed 11 07 3e 66 7a 97 3e e5 b6 c6 3e
       0.23665017 0.13190432 0.2958557 0.38811412
0003e0 10 04 9b 3e fc d3 db 3d fa 5c a7 be bd 92 17 3c
       0.30276537 0.10733792 -0.32688123 0.009251294
0003f0 e6 9b 89 3e 1e b5 85 3e 75 83 d7 3c 4a 48 df be
       0.26876754 0.26114744 0.0263078 -0.4360984

interactions.0.mlp.0.bias f4 [100]
000000 17 88 14 bd eb 98 5c bd f0 4f e2 ba 95 03 c3 bc
       -0.036262598 -0.05385677 -0.0017266255 -0.023805419
000010 b5 5c 48 bd 46 bb 28 bd 6a 99 25 bd 4b 3c 41 bd
       -0.048916537 -0.041194223 -0.04042951 -0.04717664
000020 a8 f7 0e 3d 7a 16 74 3d 8c 1d e0 3c 5d db 4c 3a
       0.034904152 0.059591748 0.027357839 0.000781467
000030 2e 05 82 bd 86 6d 68 bd 19 f3 1f 3d 9e c1 7f bc
       -0.06348644 -0.056745075 0.039050195 -0.015610127
000040 c3 8e c0 3d d2 c4 72 bd ad a2 b5 bb c8 6c b5 bc
       0.0940223 -0.059269734 -0.005543074 -0.022146598
000050 92 9b 4c 3d 17 2b 46 3c c6 b8 86 3d f1 e6 f5 bc
       0.04995305 0.012095234 0.065782115 -0.030017348
000060 41 8f 33 3c ee cd d8 3b d8 61 f6 3b 9b dc 6c bc
       0.010959447 0.0066163456 0.007518988 -0.014456893
000070 52 0c 18 3d fc 9f 65 bd c0 e3 b0 3b f1 9e 01 3d
       0.037121125 -0.056060776 0.0053982437 0.03164572
000080 7d c4 be bd bf c4 00 3c cd 24 e5 3c bd ea 13 bd
       -0.09314821 0.007859408 0.02797165 -0.036112536
000090 ff 86 b0 bc 5f 0e 52 bd 87 2a d2 3c 0d 72 5f 3d
       -0.021548746 -0.051283237 0.025655044 0.054552127
0000a0 93 77 8c 3a a8 81 a0 bc 8e 24 60 bc 0f 0e 7f bd
       0.0010716788 -0.019593075 -0.01368059 -0.062269267
0000b0 d8 b9 2c bb 4b 9f fc 3c 2b ab 3d 3d 6f a9 80 bd
       -0.0026355889 0.030837676 0.046305817 -0.06282317
0000c0 29 9c d7 bb 84 9b 93 bc eb 0b 52 bc 90 84 6b bc
       -0.006579895 -0.018018492 -0.012820224 -0.014374867
0000d0 f9 2c ae 3d a3 0b d5 bc 97 48 90 3b 4d e4 56 bd
       0.085046716 -0.026006525 0.0044031846 -0.05246382
0000e0 04 aa d8 bc 77 e5 9b bd 3e f0 2b bc 87 5b a6 3c
       -0.026448257 -0.07612126 -0.01049429 0.020307316
0000f0 c4 8f b2 bb 8c 2e 47 bc f7 a4 1e 3c 4a 4f 6f 3d
       -0.005449267 -0.012157094 0.009682885 0.058425225
000100 ca 58 37 3d 70 f9 6b 3c ce 53 8b bd 81 ea 92 bc
       0.04476241 0.014402732 -0.06803094 -0.017934086
000110 5b c0 a8 3c e8 a3 f0 3c 35 75 86 bd 3f a6 ae 3d
       0.020599535 0.029375032 -0.06565324 0.08527803
000120 17 cf df 3c 77 25 94 bd 25 f4 93 bc 7e 53 ea 3c
       0.027320428 -0.07233708 -0.018060753 0.028604265
000130 9c 9b 8d bd 62 5b ee bc 7a 12 1e 3d 03 a4 ee bc
       -0.06914446 -0.02909631 0.03859184 -0.029130941
000140 bf 74 72 3d f5 ec da bc 29 fc 12 bd ce f6 bb 3c
       0.05919337 -0.026724318 -0.03588501 0.022944834
000150 88 6f c9 3c 53 ec bb 3c 10 92 a6 3d 30 1d a1 3c
       0.024589315 0.022939837 0.08133328 0.019667238
000160 28 28 d6 3c 2c d9 0d 3d 10 07 ff bb 04 b9 62 bc
       0.026142195 0.03463094 -0.0077828243 -0.0138380565
000170 ee 97 64 3d 51 7a 2f 3c d8 ca 6a bc 5b c1 3a bc
       0.055808954 0.010710315 -0.014330588 -0.011398639
000180 3c 6d 99 bc 32 f9 08 3d a1 91 76 3c 62 e9 bc 3b
       -0.018728845 0.033440776 0.015049369 0.005765126

interactions.0.mlp.2.weight f4 [100, 100]
000000 7c 48 5b 3d 92 0d ce 3d 1b a8 93 be 9b 57 c5 3d
       0.053535923 0.10061182 -0.28839192 0.0963585
000010 b1 fe cf be da 17 b4 bd e0 9c 3f be 0b 5a 1c 3e
       -0.40624002 -0.08793612 -0.18712187 0.15268724
000020 f6 55 cf 3d af c2 24 3d 70 2f 14 3e 6d b9 15 3d
       0.101238176 0.040224727 0.14471221 0.03655379
000030 76 2c 5b be 2e 37 7f 3a 10 b1 15 be 9a 16 72 3e
       -0.21403679 0.00097357004 -0.14618325 0.23641434
000040 d5 27 87 3d 98 86 30 3d b5 48 a2 3c 36 83 a9 bd
       0.06599394 0.04309711 0.01981006 -0.082769796
000050 68 59 46 3e 6d ec 98 bd b6 d9 e8 3d a1 42 c9 bd
       0.19370043 -0.0746697 0.1136965 -0.098271616
000060 aa c1 fd bc 3f cf 01 3e b6 07 26 be d1 14 3c be
       -0.030976135 0.12676714 -0.16213879 -0.18367316
000070 1e 47 c3 bd 3b 17 06 3e 37 58 fa 3c c5 aa 54 3c
       -0.09535049 0.13094799 0.030559642 0.012980168
000080 b4 7f 50 be 54 86 ba bd b0 3a fb bd 78 c7 2c 3e
       -0.20361215 -0.09107652 -0.12267053 0.16872966
000090 21 7d d9 3d fa 91 4c bd 6a ec 3c 3e 4f a1 30 3d
       0.106195696 -0.0499439 0.1844956 0.043122586
0000a0 ad 92 71 bb 32 9f fa 3d 93 0b 10 be 46 f9 fd bc
       -0.0036861107 0.12237395 -0.14066915 -0.031002652
0000b0 3f 26 9c 3d d2 03 30 3c ca bc 87 be 93 5c 12 3d
       0.07624482 0.010743098 -0.26511222 0.035732817
0000c0 81 a0 c8 3d 8e 46 36 bd c5 7a db bd e0 b8 0f bd
       0.09796239 -0.04450088 -0.10716776 -0.03508842
0000d0 dc 83 0d bd 75 a8 0f be e7 16 2c bd 0c d6 20 bc
       -0.03454958 -0.14029105 -0.04201403 -0.009816658
0000e0 fa 7c 43 bd 5b 16 87 3c f4 47 73 3e 41 6f 56 3e
       -0.04772661 0.016490152 0.23757917 0.20940877
0000f0 d6 cb 54 3d e1 18 e8 bd c9 a5 6d 3e 5e 4e 63 3d
       0.051952206 -0.1133287 0.23207773 0.05549466
000100 01 38 f5 bd 40 e5 f2 3d 02 2a 15 3d a9 d9 57 be
       -0.119735725 0.11860132 0.036417015 -0.21079125
000110 71 79 5f 3b 79 5b 29 3e 10 29 bb bd 1d 89 68 bd
       0.0034099484 0.165388 -0.091386914 -0.056771386
000120 fe d7 1a 3d 00 2c 1d 3e 1d 16 44 3e f1 42 ac bd
       0.037803642 0.15348816 0.1914906 -0.084112056
000130 52 5c 64 3e be dc 81 3d 80 f5 ee bd 20 d0 9e bd
       0.22300842 0.06340931 -0.11667919 -0.077545404
000140 5d 05 fd 3d f8 06 03 3e 43 b7 3f be 93 6e 39 bc
       0.123545386 0.12795627 -0.18722253 -0.011317867
000150 6d 5c 16 3e 1a 4d 05 bd eb 57 17 be c0 96 41 3e
       0.14683695 -0.032544233 -0.14779632 0.18905163
000160 37 e5 83 3c 5d 23 18 3d 5e 98 1b 3e 42 b3 fb 3d
       0.01610051 0.0371431 0.15194842 0.1229005
000170 ac 0b cb 3e 1a 8f 32 be 07 bd 49 3d 2b 0c 1d bd
       0.39657342 -0.17437401 0.049252536 -0.038341682
000180 6f 0c 22 3d 54 4b 05 3e 64 d1 e1 bd 3b 96 11 3e
       0.03956264 0.13017017 -0.11026266 0.14217465
000190 c7 a8 f4 bd 27 03 97 3d ec 47 44 3e 77 ef 2c bc
       -0.11946254 0.07373648 0.19168061 -0.01055514
0001a0 9f c1 ac be af fa ab bd 23 55 54 3e b5 90 47 be
       -0.3374147 -0.083974235 0.20735602 -0.19488795
0001b0 88 93 d0 bd 51 af 3d 3d 90 30 ba 3c db 76 9d be
       -0.10184389 0.046309773 0.022728235 -0.30754742
0001c0 2a 86 b1 bc 49 93 1a be 6a 32 bd bc f9 73 7a 3e
       -0.02167042 -0.15095247 -0.023095328 0.24458303
0001d0 ea 1b 38 3d 20 43 52 3e 63 64 e1 bd 4c c5 29 be
       0.044948496 0.20533419 -0.11005475 -0.16579169
0001e0 83 09 0b 3d 9c 2b 5a bd 09 b3 e7 3e 38 36 6f be
       0.033944618 -0.053264245 0.4525378 -0.23360527
0001f0 c0 be f4 3d da 83 04 3e 9b e9 b3 bd 89 71 7a be
       0.11950445 0.12940922 -0.08784791 -0.24457373
000200 97 3d 8e be 1a 26 e8 be 1b 05 66 3e 92 37 0a 3e
       -0.27781364 -0.4534157 0.22462885 0.13497761
000210 b0 5c e7 bc 7e 3a 49 be fc 93 18 3b f1 99 40 3e
       -0.028242439 -0.19651219 0.0023281565 0.18808724
000220 1c 3e 55 be 82 30 7a 3e 72 4c 18 bd 7a 96 7a 3d
       -0.20824474 0.24432567 -0.03718228 0.061178662
000230 4d 3c 0e 3e c6 ee 7b 3e c0 c1 1c 3d b6 0b 9a bd
       0.1389019 0.24602804 0.038270712 -0.07521765
000240 df a3 39 be ea ce a4 3e 7a a0 bd bd bd 3a d7 3d
       -0.18128918 0.32189113 -0.09259124 0.1050925
000250 f3 c2 3d bd 70 aa 19 3e 5b 07 85 3d 45 0e 93 bb
       -0.046328496 0.15006423 0.064955436 -0.004487785
000260 f5 cd 5d 3d 33 0f 2e bc ca 2e 18 be d1 b3 23 3d
       0.054151494 -0.010623741 -0.14861599 0.03996641
000270 b3 73 44 bd 3b 7a dc bd e4 b1 84 bd ec 68 c1 bd
       -0.047961902 -0.10765501 -0.064792424 -0.094438404
000280 39 38 f0 bb 16 02 ea bd 75 32 55 3e 81 bb ad 3c
       -0.007330921 -0.11426179 0.20820029 0.021207573
000290 61 1a 6f 3e 6b 65 37 3d b6 95 eb bc 64 01 a1 3c
       0.23349907 0.044774454 -0.028757911 0.019653983
0002a0 d9 ee 22 be 72 3a 09 be 1c 54 a9 be 02 3c b2 3d
       -0.15911426 -0.13401201 -0.33071983 0.08702852
0002b0 99 48 11 be f7 9b 5c 3e 77 ed 74 bd 11 ea b6 be
       -0.1418785 0.21543871 -0.059796777 -0.35725453
0002c0 48 f9 df 3d 3e 70 30 bd ce 2e 3e 3e 9e e9 11 be
       0.109362185 -0.043075792 0.18572542 -0.14249274
0002d0 41 29 5a bd f4 41 9e bc 25 2c c2 3c aa a6 c4 3c
       -0.053262 -0.019318558 0.02370269 0.024005253
0002e0 fd 04 03 3d 1b a4 a6 3e 40 d1 ee bc 20 e3 82 3e
       0.03198718 0.32547078 -0.029152513 0.25563908
0002f0 fc 21 53 3e fb 86 91 3d 85 0b 81 bc 81 cc c6 bd
       0.20618433 0.071058236 -0.015752563 -0.09706975
000300 3f 03 8b be d4 73 ac 3d 67 f3 0b 3d b0 01 88 bb
       -0.27150914 0.0842053 0.034167673 -0.004150592
000310 7f e6 5c bd 45 8a 2f be e1 77 f4 3b 92 74 4c be
       -0.053930756 -0.1714259 0.0074605797 -0.19966343
000320 04 56 90 be f3 36 a1 3e 51 84 7d 3e b0 cf 3f bd
       -0.28190625 0.31487235 0.24757506 -0.046828926
000330 cf 0a 0e be 14 14 df 39 5a 9c d9 3d b7 28 c1 3b
       -0.1387131 0.00042548834 0.10625525 0.005894746
000340 57 8e 97 bd d2 61 82 3c 55 45 77 bd 2e e4 88 bc
       -0.07400196 0.015915785 -0.060368855 -0.016710367
000350 c9 dd 72 3b 26 0d ba bd 2c 4a a0 3c 9a e6 46 3c
       0.0037058464 -0.09084539 0.019566618 0.012139941
000360 00 de 1e 3d d6 8a e0 3d 09 2d a2 bc 55 10 a4 3d
       0.038785934 0.10963981 -0.019796865 0.080109276
000370 2f d6 03 3d 9d 89 37 3c 0c 5c ad bc 88 2c 1c 3d
       0.032186683 0.011202243 -0.021162055 0.038128406
000380 c8 20 c5 be be 6d 93 3c 94 9a 8a bd 25 03 f1 3d
       -0.38501573 0.017996665 -0.06767765 0.11768178
000390 fb 45 39 3d f2 8c 91 3d ca b8 3d bd c7 b2 5d 3e
       0.045232754 0.07106961 -0.046318807 0.2165023
0003a0 c0 e9 54 bd 7f df 59 be 91 e6 82 be 4e 55 d7 3e
       -0.051980734 -0.21276663 -0.25566533 0.4205727
0003b0 37 8e 37 be 96 83 87 be cd bb cc 3e df 70 e7 bd
       -0.17925344 -0.2646758 0.3998703 -0.11300825
0003c0 f1 72 e2 3d 04 c8 64 3d 91 0b ca bc 59 e1 a2 bd
       0.110570796 0.055854812 -0.024663718 -0.07953138
0003d0 b6 9f c6 3d ea f5 95 3e 03 e4 66 bd db 40 8e 3c
       0.09698431 0.2928918 -0.056369793 0.01736491
0003e0 37 9a 62 be fe a4 b4 bc 4d 81 39 be 6b 6b 32 be
       -0.22129141 -0.02205133 -0.1811573 -0.17423789
0003f0 a3 0f 89 3c 7b a2 ac bc 6a 2f df bd 12 d7 05 be
       0.016731089 -0.02107357 -0.108977154 -0.13070324

interactions.0.mlp.2.bias f4 [100]
000000 ee 09 d9 3c 9c 89 3e 3c 82 19 4c 3c 75 f6 9f bc
       0.026493993 0.011629488 0.012457253 -0.0195267
000010 c0 39 a3 bb 08 32 81 3d 6e 76 55 bb 1a 5d 01 3c
       -0.0049812496 0.06308371 -0.003257181 0.007895732
000020 4d b5 58 3b db e6 9a 3c 5c ff 51 bd 32 51 ef 3a
       0.0033067048 0.018908909 -0.05126892 0.0018258451
000030 e4 64 51 bc d9 07 b1 bc f1 b8 b9 3a e4 f8 4b ba
       -0.012780402 -0.021610187 0.0014169497 -0.0007780923
000040 9d 32 2a bd 27 01 35 3c e2 ea 82 3e 89 1f e5 3d
       -0.041552175 0.011047638 0.25569826 0.111876555
000050 6d e7 48 bc 74 ce 0d bb a6 95 0d bc 6e 4a 88 3c
       -0.012262207 -0.0021637948 -0.008641636 0.016637053
000060 9e b2 dd 3c d0 47 19 3b 0e 25 17 3c cf 14 53 3c
       0.02706271 0.002338875 0.009225143 0.012883379
000070 db 3f 6f bb 2a da 93 bb e4 8c 58 bd 1e 1e 66 bc
       -0.0036506567 -0.004512091 -0.05286874 -0.014045266
000080 18 db 62 3d 04 88 02 3e fd bd 29 3c 30 f3 ce 3a
       0.055384725 0.12747198 0.010360238 0.0015789028
000090 ad 99 73 3c ed 7a 81 ba 36 8d 96 bb db 61 03 3c
       0.014868182 -0.0009878554 -0.0045944704 0.008018936
0000a0 de d7 a9 bc a2 6f 96 ba 99 09 ae 3c d1 62 be bc
       -0.020732816 -0.0011477361 0.02124481 -0.023240479
0000b0 3b 1d 00 bc aa ce b8 3c f7 33 e0 ba 2c ef 8c 3b
       -0.007819469 0.022559483 -0.001710533 0.0043009724
0000c0 cf ed 01 3d 22 13 93 3b cc f5 c4 bc bc ff ab bc
       0.031720933 0.004488365 -0.024042986 -0.020995967
0000d0 ac a4 8f bd 7e 8d 36 bc bb d5 49 3d e1 bc 8e 3c
       -0.070138305 -0.011142133 0.049276095 0.017424049
0000e0 89 02 d4 bc 22 36 56 ba c9 e0 a8 39 72 cf ff bb
       -0.025880115 -0.00081715186 0.00032210935 -0.007806712
0000f0 07 d3 1e 3c 69 c4 be bb f1 47 8f 3c 08 39 fa 3b
       0.0096938675 -0.0058217538 0.017490359 0.007636193
000100 0a 97 fa 3a 3c 06 97 bb fa 4f 7f 3c a2 ef af 3d
       0.00191185 -0.0046088975 0.015583033 0.08590628
000110 e8 78 45 3b 7e b0 97 3d b5 9c 58 3d 7a 04 a7 3b
       0.003013188 0.0740671 0.052883822 0.005096969
000120 2e 60 b3 3c d4 d4 9f 3c ae 26 d4 bc 5c 72 e7 3a
       0.021896448 0.019510664 -0.02589735 0.0017657983
000130 64 f5 f8 b9 dd 09 da ba 62 cb 52 bc 4a 90 8a bb
       -0.00047485076 -0.001663502 -0.012865873 -0.0042286264
000140 3d 24 93 3b 68 1a e3 38 93 d1 e0 bc 60 de 8b bd
       0.004490404 0.00010829122 -0.027443683 -0.06829524
000150 c2 3c 09 3b 8c 37 03 bb c1 49 da ba 6a 8f 35 3d
       0.0020940755 -0.0020022122 -0.001665406 0.044326223
000160 eb 5b df bc 2f cc b4 bc ee b8 6c bc 6a 72 60 3c
       -0.02726551 -0.022070019 -0.014448388 0.013699153
000170 b8 8b a1 bc 7c 58 91 bb f5 73 4a bc 2d 22 79 bc
       -0.019719943 -0.004435597 -0.012356748 -0.015205902
000180 52 3a 3c 3c 2c 2f d5 3a 67 36 22 3c b5 3b 11 bb
       0.011488514 0.0016264669 0.009900666 -0.0022160832

interactions.0.conv.lin1.weight f4 [100, 100]
000000 51 96 dc 3d 3a 22 bc 3a f1 66 29 be 77 33 ae bd
       0.10770858 0.0014353462 -0.16543175 -0.0850591
000010 83 78 23 3e 8b 27 1d 3e 59 52 9c 3d be 94 81 3c
       0.1596394 0.15347116 0.07632894 0.015817996
000020 97 54 27 3c 6f c5 90 3d 0c 7e e3 bd 56 a4 24 be
       0.010213039 0.070689075 -0.11108026 -0.16078314
000030 21 93 84 3e 7b f7 6a 3e 76 15 1c bd 68 b8 71 bc
       0.258935 0.22945969 -0.038106404 -0.0147534385
000040 1b 96 ea 3d b0 0f 86 bd 84 46 ad 3d 8b b9 1e be
       0.114544116 -0.06545961 0.084607154 -0.15500467
000050 dc 9b 6e 3d 1f b0 79 bd d8 60 d5 3d f9 d5 5b bd
       0.058254108 -0.060958978 0.10418862 -0.053670857
000060 30 e4 b6 bd a7 4b 96 3d 10 93 69 3d 87 de 94 bd
       -0.08930242 0.07338648 0.057025015 -0.07269006
000070 86 ba bf 3d 86 ae 32 be e6 8c af 3d e6 e7 82 3e
       0.093617484 -0.17449388 0.08571796 0.2556755
000080 e7 71 55 3c 8a a3 21 3e a5 ec 5b be 92 d1 5d 3d
       0.013027645 0.15785041 -0.21476991 0.05415494
000090 c0 8f 35 3d 5f f4 a9 3d ff 5b 43 3e 6e f4 68 bc
       0.044326544 0.08298563 0.19078062 -0.014218433
0000a0 ee 20 6c 3d 49 ba 9d bd 5d d3 83 3d 78 ad 8e bd
       0.05764859 -0.07701547 0.06436799 -0.0696668
0000b0 62 f6 86 3e 84 3d 1e 3c b8 ab 36 bc bf 32 66 3d
       0.2635985 0.009658221 -0.011149339 0.05620074
0000c0 70 41 9e bd c9 cb fe bd 5f 82 d7 3d 57 6c 08 be
       -0.07727325 -0.12441213 0.10522913 -0.13322578
0000d0 1d 8b 3f bc 83 62 e0 bd 2d 18 4f 3e bb ef 72 3c
       -0.011690882 -0.109562896 0.20224066 0.014827664
0000e0 7e b9 1e 3d 33 5e ff 3d c3 aa 50 3d e2 29 74 3b
       0.038751118 0.12469139 0.0509441 0.003725641
0000f0 f3 7c 40 3d 55 15 96 3d 0d 3f 51 bd 12 03 f6 3d
       0.04699416 0.073282875 -0.05108552 0.12012304
000100 a6 01 1c be 7f 7c b6 bd a5 cc 6c 3e b6 58 cf 3d
       -0.15235004 -0.089104645 0.2312494 0.10124342
000110 f5 76 96 3d 0e f4 a5 3c 38 a3 93 3e 7a 39 04 3e
       0.07346908 0.020257976 0.28835464 0.1291255
000120 57 8c 0d 3e ae ed 1e 3e 81 ff 53 bd 01 8e 80 be
       0.13823067 0.15520355 -0.05175734 -0.2510834
000130 44 1f ee 3d 4b b7 98 3d 5e 51 6a 3d fc 0f 4b 3d
       0.11627057 0.07456835 0.057206504 0.04957579
000140 39 55 e2 3c b9 61 92 bd d6 66 97 3e 1e 38 18 3c
       0.027628528 -0.07147545 0.29570645 0.009290723
000150 3c a6 d8 3d b9 c2 29 3d d9 06 11 be 0c a4 9f 3d
       0.10578582 0.041445468 -0.14162768 0.07794961
000160 c6 9b 50 be f0 0c 62 3c a8 d5 3a bd ee 4b 42 3d
       -0.20371923 0.01379703 -0.045613915 0.047435693
000170 18 73 eb 3d fa 72 43 3e b8 c0 01 bc e5 7a 39 3c
       0.11496562 0.19086829 -0.007919483 0.011320804
000180 23 61 3f 3e ad b3 67 bd af 6f 7b 3a f1 58 b8 be
       0.18689398 -0.056567837 0.0009591532 -0.36005357
000190 d5 a9 7b 3d eb 48 dd 3e d3 44 43 be 60 b6 c2 3d
       0.06144126 0.43219694 -0.19069223 0.095074415
0001a0 47 f3 0f 3e 5b 2c 10 be 4b c6 b6 3c 1f 26 0c be
       0.14057647 -0.1407942 0.02231135 -0.13686417
0001b0 b9 43 6d bd ff 4f 25 be ea 32 c4 3e 9a 50 90 be
       -0.057925913 -0.16143797 0.38320094 -0.28186494
0001c0 52 cb 57 3e be 94 07 be 13 f4 30 3e 56 25 11 ba
       0.21073654 -0.13240334 0.17280607 -0.00055368745
0001d0 c3 a7 03 be ba fb ea 3c 95 a6 35 be d9 a4 b9 bc
       -0.12856965 0.028684486 -0.17739327 -0.022661613
0001e0 0e 12 7d be c8 94 ae 3d df 6d 2d 3e 93 bc a1 3d
       -0.24713919 0.085244715 0.16936444 0.07897296
0001f0 18 cc 14 be 0d 37 7d be 87 dc 0f be 86 49 82 be
       -0.1453098 -0.24728031 -0.14048968 -0.2544672
000200 cf 43 7e 3d 0d c0 f0 bd eb ad 5b bd 20 cd bc be
       0.062076386 -0.11755381 -0.053632658 -0.36875248
000210 71 40 c2 bd 61 a1 34 3e c1 6a 00 3f bb a2 77 be
       -0.094849475 0.17639686 0.50162894 -0.2418317
000220 9a ed 40 be 71 14 3e bd ad 37 38 be 57 08 63 3d
       -0.18840638 -0.046406213 -0.17989989 0.055427875
000230 e5 20 aa bd fc 12 cd 3d bd 1d 26 3d eb 05 ca bd
       -0.083070554 0.100133866 0.040555704 -0.0986441
000240 d3 35 94 3c 40 21 1b be 30 26 f3 3b 24 2b f6 3d
       0.018092072 -0.15149403 0.007420324 0.12019947
000250 87 fe 37 3e 84 a1 bb 3d ed 54 24 bd e0 17 03 be
       0.17968188 0.09161666 -0.040120054 -0.12802076
000260 82 18 59 be fe 95 27 be ae 1b 4b 3c 0e db 9e 3d
       -0.21200755 -0.16365811 0.012396736 0.07756625
000270 d0 e7 03 3c 2f 7f 6d 3e 11 53 e4 bd 25 95 ae 3e
       0.008050874 0.23193048 -0.11148656 0.34098163
000280 a1 7b 54 3b 31 46 54 be eb 7f 31 be c4 39 31 bd
       0.0032422321 -0.20729901 -0.17333953 -0.04326798
000290 70 a8 0e 3f e5 29 29 3c 96 87 bd bd b7 1c cb bd
       0.55725765 0.01032493 -0.092543766 -0.09917586
0002a0 4a 7a 21 3f d6 df aa bc 6e 09 36 be 05 0e d6 3b
       0.63077223 -0.020858686 -0.17777035 0.006532433
0002b0 83 81 d8 3d d8 81 05 3d d1 68 37 be 48 75 ac 3b
       0.105715774 0.03259453 -0.17911078 0.0052630045
0002c0 ff 4e 39 3c 71 24 4e 3e eb 2f 9f 3d 4b 82 7a 3c
       0.011310338 0.20131089 0.077728115 0.015289853
0002d0 b5 e3 30 be 00 91 47 3d 20 98 15 3e 93 7f 61 be
       -0.17274363 0.048722267 0.14608812 -0.22021322
0002e0 89 51 82 bd ed 20 0b 3e dd 0a bd bc f1 d2 f9 bc
       -0.06363208 0.13586779 -0.02307647 -0.030496093
0002f0 3f 9b 3c 3e 31 da 97 3d cc 57 46 be 0d 5d 85 bd
       0.18418597 0.074146636 -0.1936943 -0.06511889
000300 26 15 36 3e 70 d5 b6 3d cb 22 f8 3d be 0d 0b 3d
       0.17781505 0.08927429 0.12116011 0.033948652
000310 3a c6 e4 bd cb 66 4b be c4 4a 1d 3d 12 ce 0b bf
       -0.11170621 -0.19863431 0.03840138 -0.54611313
000320 c6 1e 59 bd 10 84 2c bc 08 90 09 be 8e 70 95 3e
       -0.053007863 -0.010529533 -0.1343385 0.29187435
000330 e9 04 ac 3d 8d aa d1 bd 97 90 31 3e 4e 06 f5 bd
       0.08399374 -0.10237608 0.17340313 -0.11964093
000340 60 8e 2b bd 7f cd bf 3c 73 22 89 3e 6d 18 ed bb
       -0.041883826 0.023413418 0.26784095 -0.007235578
000350 7b f7 9d 3d 04 8d a6 3e ba 07 17 be 29 a3 da 3d
       0.07713219 0.3252946 -0.14749041 0.106756516
000360 47 6a 68 bd 75 23 31 bd a1 f2 a6 bd 91 75 96 3d
       -0.05674198 -0.043246705 -0.081517465 0.07346643
000370 bd 6a 3d 3d 74 15 29 be ec 2b d5 bc 72 49 af 3c
       0.04624437 -0.1651209 -0.02602192 0.021397326
000380 04 73 67 bd eb 10 16 3e fc a2 3f 3a 59 4b 25 be
       -0.05650617 0.14654891 0.00073103583 -0.16142024
000390 85 f5 2e bd b6 c8 61 3d f8 f3 63 be 12 bd 2b 3e
       -0.042714614 0.055123053 -0.22261035 0.16771343
0003a0 7e 32 d3 bd ca b1 ae bd d1 15 a5 3e d5 68 f4 be
       -0.10312365 -0.08530004 0.32243207 -0.4773623
0003b0 ff 3d 30 3d 61 f5 6b be 09 a5 db 3c 98 ea 7e 3c
       0.043027874 -0.23042823 0.026812093 0.015558861
0003c0 02 09 07 3d 67 20 07 3e 60 be 9a 3d fe 71 cf bd
       0.032967575 0.13195954 0.075558424 -0.10129164
0003d0 07 a4 bf bd d4 c0 d0 bc 62 6a ed bd 55 9b 19 be
       -0.093574576 -0.025482573 -0.115925565 -0.1500066
0003e0 b8 f7 36 be 7e e7 12 3e aa a5 fe bd 5e cd 0e bd
       -0.17867935 0.1434612 -0.12433942 -0.034863822
0003f0 86 55 a2 3a 55 09 c1 3e 6a 07 b6 3d 25 d2 5b bd
       0.0012385107 0.37702432 0.08888133 -0.053667206

interactions.0.conv.lin2.weight f4 [100, 100]
000000 e8 e3 27 3d fd 02 b5 be bb aa 23 3d f0 43 65 be
       0.040988833 -0.35353842 0.039957743 -0.22389197
000010 60 c7 d4 3a bb fb de bc 91 3e 73 3e 0b 84 f3 3c
       0.0016233735 -0.027219644 0.23754336 0.029726049
000020 46 fa af bc 63 b3 3b 3d 63 a6 70 3c f0 d7 a7 3c
       -0.021481644 0.045825373 0.014688107 0.02048871
000030 59 74 86 bb 4d a8 b6 3c de 86 bb ba 98 2c 69 bc
       -0.004103225 0.022297049 -0.0014307161 -0.014231823
000040 04 57 30 3b 8e 40 0b ba 5f a4 74 3d d2 b9 8f 3c
       0.0026907334 -0.00053120486 0.05972707 0.01754466
000050 73 91 37 bd 7d 52 20 bc 50 93 7b bc f7 d8 5a 3e
       -0.044816446 -0.009785292 -0.015354946 0.21371828
000060 1d bf a3 bc 58 4f 00 3c 95 a9 02 bd cb 3a dc bc
       -0.01998859 0.007831417 -0.031900007 -0.026883503
000070 d3 34 4a bc bd 2d 6d 3e 8e 3d c4 bc 8c 9e 03 3d
       -0.012341696 0.23161979 -0.023955133 0.032133624
000080 9b 4a bb 3a e9 d9 23 bd 75 21 91 bc 2a 94 00 3c
       0.0014289202 -0.040002737 -0.017716149 0.007847825
000090 09 50 49 3e 7d b1 9e 3c 3f 60 18 be d2 bb 14 3d
       0.19659437 0.019371742 -0.14880465 0.036311932
0000a0 f1 94 10 3d eb 2a 05 be b3 10 22 3e a7 27 5b 3d
       0.03529829 -0.13004653 0.15826683 0.053504612
0000b0 d6 d8 2a bd 2c ab 57 bd 5f 09 37 bd 21 4b fd ba
       -0.041710697 -0.052653477 -0.04468667 -0.0019324758
0000c0 ed aa 28 bd 7c c6 d1 bd 0d 77 75 3d e5 c8 17 3a
       -0.041178633 -0.10242936 0.05992799 0.00057901285
0000d0 9c 16 22 3d 72 74 30 3d b8 05 4e be 2e b9 f5 ba
       0.039572343 0.0430798 -0.20119369 -0.0018747204
0000e0 1a 0e c3 bc 49 b6 72 3c bc c1 4c 3d 62 f6 1f 3c
       -0.023810435 0.014813968 0.049989447 0.009763332
0000f0 04 d5 2f 3d 4a 40 c7 3c 1d 66 6e bd 6e 84 29 bc
       0.042927757 0.024322648 -0.05820285 -0.010346515
000100 7e 81 b8 3b b6 55 3a bd a8 45 c1 3e 7f 76 1a 3c
       0.005630671 -0.045491897 0.37748456 0.009427666
000110 23 7a 3f be ad 32 8e 3c 42 be 68 bd 60 78 04 3e
       -0.18698935 0.017358148 -0.05682207 0.12936544
000120 02 28 4b 3e 6b ae ff bc 0d ce 4f 3d 91 a1 d3 b9
       0.1983948 -0.031211099 0.050733615 -0.00040365433
000130 36 31 97 3c 25 3b 4c 3b 41 1d 8f bd 92 20 ed 3a
       0.018456083 0.0031163183 -0.069880016 0.0018091372
000140 69 f6 e6 3d 82 24 1c bc 58 a8 b8 be e0 1f d0 bd
       0.11277468 -0.0095301885 -0.36065936 -0.1016233
000150 5e 4f a1 3e 8d 2e 17 bd b3 30 e0 bc de b9 5d bd
       0.31505865 -0.03690963 -0.027366972 -0.054132335
000160 2a 26 5e 3d 72 ec 31 bc 14 98 ab 3c a7 35 d1 3c
       0.054235615 -0.010859596 0.02094654 0.025538279
000170 bb f2 b0 bb 87 bf d3 bc 12 62 3e bd ad e9 01 bd
       -0.0054000295 -0.025848163 -0.046480246 -0.03171699
000180 d9 0e af bc 36 0e bc bc a6 24 2f bb dc 17 a9 3c
       -0.021369385 -0.022955995 -0.0026724725 0.02064126
000190 31 26 3a 3c 39 aa 55 bd 2a dd 3c be c2 c0 fd bd
       0.011361645 -0.05216429 -0.18443742 -0.12390281
0001a0 d4 2a f7 3c 30 53 2a bd 5d b8 2d bd b2 03 f7 3c
       0.03017179 -0.04158324 -0.04241215 0.03015313
0001b0 a3 d0 4a 3c d8 26 11 3d ac 54 03 be 27 9e 29 3d
       0.012378844 0.035437435 -0.12825269 0.04141059
0001c0 00 6d 8e be 8d f8 b7 bd 9a 06 00 3d 9d 51 dc 3c
       -0.27817535 -0.08982954 0.031256296 0.026894385
0001d0 2d 32 e1 3d d3 d5 12 3c 4a 92 5d 3d a7 71 95 3d
       0.109958984 0.0089621125 0.05409459 0.07297068
0001e0 d0 d6 de 3c 2d 2c 96 bc 68 2c fd 3d 68 bb 10 be
       0.02720204 -0.018331612 0.123619854 -0.1413399
0001f0 18 d2 15 bd bc c6 62 3a 54 1a 58 be 59 83 a7 bd
       -0.036577314 0.00086508295 -0.21103793 -0.081793495
000200 ec 10 ae 3c cd 61 9a 3d 86 dd 61 3d 40 2f 64 bd
       0.021248303 0.07538185 0.0551429 -0.055709124
000210 43 26 e0 3d 07 26 a8 bd de 9b 9a bc 5f 67 0f be
       0.10944798 -0.08210378 -0.018873151 -0.14004277
000220 2f 83 32 bd 49 31 26 bc 33 a8 50 3d 88 03 d2 3c
       -0.043582138 -0.010143586 0.050941657 0.02563645
000230 21 ce 79 3b 24 0d 0f 3d dc bc 3d 3e 12 50 bd 3d
       0.0038117247 0.03492464 0.18529075 0.09243788
000240 23 41 14 bd 2f 4b 43 3c 6b dc 61 3e b2 d1 0f bd
       -0.03619493 0.011919781 0.22056739 -0.03511209
000250 02 b2 8a bc 43 98 40 3d 36 e6 41 3e e7 bc 21 3d
       -0.016930584 0.047020208 0.18935475 0.039486792
000260 75 ac be 3d 2e 91 d8 3c 7c 58 91 be 29 43 a9 3c
       0.09310237 0.026436415 -0.2838782 0.020661907
000270 6f 6e cd 3d 03 2d 18 3d b5 cb 45 bd 21 b9 d3 3e
       0.10030829 0.0371523 -0.048289973 0.4135218
000280 32 5a c9 3c b5 5f 5a 3e bc a1 97 ba 40 98 29 bd
       0.024579141 0.21325572 -0.0011568586 -0.041404963
000290 f0 8e 44 bc 86 53 86 3b 20 50 52 3d 63 fd 62 3e
       -0.01199697 0.0040993122 0.051345944 0.22166972
0002a0 5a f2 ab bc 8c 83 5c 3d f7 8c c4 3d d7 cd 71 3e
       -0.020989586 0.05383639 0.095971994 0.23613678
0002b0 51 39 26 3e 92 22 81 3d 5a 3d 04 3d 0d 30 1f bb
       0.16232802 0.06305422 0.032285072 -0.0024290115
0002c0 bb 6a 90 3c bb 27 ac bc c2 20 23 3e 0d 14 d6 3c
       0.017629018 -0.021015039 0.15930465 0.026132608
0002d0 fd 95 2c be 15 cc b1 3d 2f 68 dd 3c 0d b1 80 3d
       -0.16854091 0.08681504 0.027027218 0.0628377
0002e0 d5 63 1c bd 61 18 8e bb be 1d 6c bd 6b 34 4c 3e
       -0.038181145 -0.0043364023 -0.05764555 0.19941871
0002f0 4d 2e ea 3c 33 4c dc 3c 22 8b a4 bc 57 00 28 3d
       0.028586531 0.026891803 -0.020085875 0.04101595
000300 6b 0e b5 bc df a4 2b 3e 77 8a 35 3c 0b 3a 6b 3b
       -0.022101602 0.16762112 0.011080376 0.003589275
000310 f6 ce 03 3d 39 d4 12 bc b2 b0 01 3c 55 3c f7 bc
       0.032179795 -0.008961731 0.007915663 -0.030180136
000320 60 f4 07 3d 52 31 4c 3e 4d 8c 00 be 8e 72 ed bd
       0.03319204 0.19940689 -0.1255352 -0.11594115
000330 d1 83 1a bb 7d f3 9d bd e9 87 df bd 61 88 8d 3c
       -0.0023577104 -0.07712457 -0.10914595 0.017276945
000340 af 2b bf 3c 0b cb 34 3d 42 ce 27 be e3 df 61 39
       0.02333626 0.04413895 -0.16387275 0.00021541076
000350 7b 38 d8 bd 48 8e de bd 52 91 b4 3d 6d 49 2b bc
       -0.10557648 -0.10866982 0.0881678 -0.010454518
000360 c2 a5 19 3e 24 5c 0f bc d8 51 aa bd ec e5 0d 3e
       0.15004638 -0.008749995 -0.08316392 0.1385724
000370 89 d3 a2 bb 03 ca 2d 3d 69 2f b8 bd 71 06 88 bc
       -0.0049690646 0.04242898 -0.08993418 -0.016604634
000380 06 10 b2 bd 7c d2 94 3c 11 ce 73 3d 02 aa a8 bd
       -0.086944625 0.018166773 0.059522692 -0.082355514
000390 c4 af 44 bc 64 77 bd bc 38 a4 9e 3d 31 3b 87 3c
       -0.012004796 -0.023128219 0.07746166 0.016507717
0003a0 91 c8 1b be 38 b2 1b 3e eb f9 61 bd 5d 30 6a bd
       -0.15213229 0.15204704 -0.05516998 -0.05717503
0003b0 ac c4 27 bc 69 0f a1 bb 64 55 0c be ad ff 2b 3c
       -0.010239761 -0.004915167 -0.13704449 0.01049797
0003c0 c1 03 f0 bc 80 75 cb 3c 6e 83 f5 3c 2e 35 23 3e
       -0.029298665 0.024836302 0.029969897 0.15938255
0003d0 89 b6 7f bd 9b 98 2f 3c 0b f6 92 3c 6e 8f 28 bd
       -0.06242994 0.010717536 0.017939588 -0.04115241
0003e0 37 ba 08 bd 8d 1b ea 3e 83 f5 fb bd 96 cd 94 3d
       -0.033380713 0.45724145 -0.12302687 0.07265775
0003f0 22 14 f6 3a b6 2f 1a bc d9 85 5e bd 25 b8 58 3c
       0.0018774311 -0.009410789 -0.054326866 0.013227497

interactions.0.conv.lin2.bias f4 [100]
000000 26 5b 11 3c 43 84 0e bd 1e 43 35 be 0e 30 50 3e
       0.008871829 -0.034794103 -0.17701384 0.20330831
000010 16 1d b7 bd e5 9d 29 bc 4e 25 8d be 9b 2d cf bc
       -0.089410946 -0.010352586 -0.27567524 -0.025290301
000020 f0 d2 38 bd 76 15 a6 be 57 b0 e0 bc 0a 89 87 3e
       -0.04512304 -0.32438248 -0.027427835 0.2647174
000030 4b b0 bf be 00 e6 60 bd fa 2b f9 bd 97 d2 5e 3c
       -0.37439188 -0.054906845 -0.12166591 0.013600013
000040 a5 65 fa bd 6e 7a 69 3d 5c 43 ab ba 55 6d f7 3c
       -0.122264184 0.057001524 -0.0013066339 0.0302035
000050 d3 15 14 bd 35 59 cf be 90 7e 31 3d c9 c6 c7 3d
       -0.036153626 -0.40497747 0.04333359 0.09754712
000060 38 60 88 bd c1 f9 b9 bd 4f 63 f0 3b 53 2f 82 bd
       -0.06658977 -0.0908084 0.0073360573 -0.06356683
000070 74 3e 98 ba 7f 08 b2 bd 88 e2 f0 3d 41 ac 13 3d
       -0.0011615292 -0.08693027 0.117619574 0.036052946
000080 d3 f9 33 3d 17 24 e7 bd 26 85 be bd d5 3d 82 bd
       0.043939423 -0.112861805 -0.0930274 -0.0635945
000090 93 8e ae be 0b bf 06 be fe 96 b0 3e 8c 82 2c 3d
       -0.3409315 -0.13158815 0.34490198 0.042116687
0000a0 0f 3e 76 bc bc 1f 2d bd 5d 5e 81 3c d8 22 cb bd
       -0.015029444 -0.042266592 0.015792066 -0.09918755
0000b0 c8 74 5b bd a9 06 fe bd 47 59 32 3d 2c 02 da bd
       -0.05357817 -0.12403614 0.043542173 -0.106449455
0000c0 c8 c0 38 be c9 9f e0 be 67 a6 4e 3d 81 42 8c 3c
       -0.1804229 -0.43871906 0.050451662 0.017121555
0000d0 24 e9 7b 3d b1 0b 72 bd 47 ca 65 be 8c 31 41 be
       0.061501637 -0.05909318 -0.22440444 -0.18866557
0000e0 52 08 db 3b 9a 8f b5 3c 90 d9 b0 3c c9 d3 06 be
       0.0066843415 0.022163201 0.021588117 -0.13166727
0000f0 d2 31 90 3d 98 2d b1 b9 23 fe 82 bb 4f a3 df bd
       0.070407525 -0.0003379404 -0.0039975806 -0.109198205
000100 5d fb 08 be 85 3d ce 3c a1 6c 46 3d 4c 19 1b be
       -0.13377137 0.02517582 0.04844344 -0.15146369
000110 99 7b 29 bd 7d 01 a3 3c 0a 6d 44 be 3d ae 5e 3d
       -0.041377638 0.01989817 -0.1918222 0.054365385
000120 b5 83 27 bd d5 b7 ba 3b 01 a0 15 bd a4 6a 18 bc
       -0.04089709 0.005698184 -0.036529545 -0.009302769
000130 b3 ec 91 bd 63 93 0c bf 15 a2 d2 bc 76 7a d3 3c
       -0.07125225 -0.54912394 -0.025712052 0.02581523
000140 c1 60 97 bd 19 7c 9c be 9e 43 37 be dc a8 d4 bd
       -0.07391501 -0.3056343 -0.17896888 -0.1038377
000150 91 71 13 be e0 e5 d5 3b 42 1c 1f be 2c 69 e4 3c
       -0.14398791 0.0065276474 -0.15538123 0.027882181
000160 31 a8 11 be 23 0e 88 bd f7 91 79 3e 46 66 66 be
       -0.14224316 -0.06643321 0.24372087 -0.22499952
000170 c9 ad 51 3d 7f 27 39 3e d7 6b ad be 4a 01 f7 bc
       0.051191125 0.18081473 -0.33871338 -0.030151982
000180 97 f5 14 3e 49 94 8c be dd f8 7f bd 5b 6c ab 3c
       0.1454681 -0.27456883 -0.062493194 0.020925691

interactions.0.conv.nn.0.weight f4 [100, 25]
000000 95 ef 70 be 62 bf a1 3c a0 bc d1 3e 64 ff 83 3e
       -0.23528893 0.019744579 0.40964222 0.25780785
000010 34 92 a1 bd b6 95 7b be 7c 51 91 3e a4 3c fc bd
       -0.07889214 -0.24568829 0.2838248 -0.12316254
000020 2e 30 1f 3e 6e 46 7d bd 59 a6 b1 3d 8e a4 b5 bd
       0.15545723 -0.061834745 0.086743064 -0.08869277
000030 ab 39 43 3e 3d a7 24 be 96 23 25 3e 06 fe 79 bd
       0.19064967 -0.16079421 0.16126856 -0.06103327
000040 a7 52 c8 bc 44 ff 33 3e c8 08 1a be 53 19 b4 3d
       -0.024453474 0.17577845 -0.15042412 0.08793893
000050 a8 7f e5 3d 69 6e b8 bc 30 52 69 be 7f 77 16 be
       0.11205989 -0.022513585 -0.22785258 -0.14694022
000060 cb 58 b9 3f 98 70 c9 bc ee fd 90 3c 4a 49 a2 be
       1.4480222 -0.024589822 0.017699208 -0.3169654
000070 ab 5f 9b be da 45 a0 be 21 c7 94 be 9d bc 69 3f
       -0.30346426 -0.31303293 -0.29058173 0.91303426
000080 21 bb c5 3e bd 28 ad bd 9a bd b8 3d 29 de c0 3e
       0.3861933 -0.08455036 0.09020539 0.37669495
000090 f5 97 31 3e ba 37 37 be bb bb 31 3d 24 47 35 3d
       0.17343123 -0.17892352 0.043391924 0.044257298
0000a0 92 6e bf 3d ea 63 a5 3b 29 b1 80 3d ba d1 58 be
       0.093472615 0.005047311 0.062837906 -0.21173754
0000b0 51 ea 01 bf 50 28 87 be 54 14 44 bf b8 6d 36 bf
       -0.50748163 -0.26397943 -0.7659352 -0.7126117
0000c0 07 d2 9a bf 60 d2 3f c0 68 67 9d 3f e7 37 19 3f
       -1.2095345 -2.9972153 1.2297182 0.59850925
0000d0 77 62 f0 3d 0c 82 9d bd 39 fb 20 3e dd 6c 92 3f
       0.11737531 -0.0769082 0.15720834 1.1439472
0000e0 94 76 e1 3e 33 10 c0 be 71 09 99 3d fd 0e 4e be
       0.4403578 -0.3751236 0.07472504 -0.20122905
0000f0 dd ba 53 be 31 eb 89 3c 8d 1d 0d be c1 13 dd bd
       -0.20676751 0.01683578 -0.13780804 -0.107947834
000100 9c c2 a3 bc 73 15 57 3c e1 73 a7 bd 2b 6f bd bd
       -0.019990258 0.0131276725 -0.08176399 -0.09249719
000110 a5 07 8b be 68 1a 63 be ce 9c 89 be 1f 7a f4 be
       -0.2715427 -0.22178042 -0.26877445 -0.4774942
000120 53 eb 1e bf 25 32 18 bf eb 16 9c bf 8a 5f 41 be
       -0.62077826 -0.59451514 -1.2194494 -0.18884102
000130 a7 42 6e be 1a 3b 8a bb 96 a2 24 bd 28 ad 01 3c
       -0.23267613 -0.0042184712 -0.040194117 0.007914819
000140 2b c9 c4 3d a4 bb e9 bd 9d 31 8b 3d d8 2d 00 3d
       0.09608682 -0.11412743 0.06796572 0.03129372
000150 50 9e 2a 3d c0 06 e1 3c 17 d4 53 3c ed 85 3e 3d
       0.041654885 0.027469039 0.012928984 0.04651444
000160 55 66 da 3d 74 5c cc 3c 28 c4 21 bd 3f e2 b8 3d
       0.106640495 0.024946429 -0.03949371 0.09027528
000170 4c a4 89 be a0 29 97 3e d4 cc 95 be 54 32 72 3d
       -0.2688316 0.29523945 -0.29257834 0.059130028
000180 35 02 54 3e 62 43 bc bd 42 74 11 bf e3 c7 79 be
       0.20703967 -0.0919254 -0.5681802 -0.24392657
000190 15 48 45 bf 88 a1 09 bc 8c e0 3e 3e 8a 61 77 3e
       -0.77063113 -0.008400328 0.18640345 0.24158302
0001a0 02 d4 e6 3d bc ad 8f be 17 aa 1e 3f 12 af 97 be
       0.11270906 -0.28062236 0.61978287 -0.29625756
0001b0 4f 7b b2 bd ba ba 7b 3e 39 fe 16 be 62 9d 08 3e
       -0.087149255 0.2458295 -0.14745416 0.13341287
0001c0 e8 37 f6 3c 6c 4f 2c be ff 1c 82 3e e0 d1 38 be
       0.030055955 -0.16827172 0.25412747 -0.18048811
0001d0 1b 0a 56 3c f7 ac 3c bd 8d ad 42 3e 8d 67 92 bd
       0.013063933 -0.04606339 0.19011517 -0.07148657
0001e0 68 7c 83 be 8e 0b b2 be a5 76 12 bf 5d 45 b4 bf
       -0.25680852 -0.3477444 -0.5721229 -1.4083668
0001f0 80 86 c8 bf 30 59 2d bf 2d 19 4d be 2f 54 a0 bc
       -1.5666046 -0.67714214 -0.20029135 -0.019571392
000200 35 da bf 3e fc dc 88 3e f5 92 d8 bd 2c 9e 08 3e
       0.37471166 0.26731098 -0.10574905 0.13341588
000210 09 51 9c 3e 1a a1 6c be b6 f4 d4 3d 28 02 94 3e
       0.30530575 -0.2310833 0.103982374 0.28907895
000220 48 30 df 3b ef b5 97 3d ee e1 1b be be be 50 bd
       0.0068111755 0.07407748 -0.15222904 -0.050963156
000230 74 23 a3 bc e0 5f 2a be ff 63 64 be 1f 6b 86 3d
       -0.019914366 -0.16638136 -0.2230377 0.065634005
000240 e5 6b aa be f3 58 89 be b3 ef 92 be ee 2e d2 be
       -0.33285442 -0.26825675 -0.286985 -0.4105143
000250 40 34 cb be 76 40 d7 3e 7f 64 f7 3e 73 3f 72 3e
       -0.396883 0.42041367 0.4831886 0.23657016
000260 45 1f 54 be 61 a3 15 be aa c8 fa 3d e1 0d da 3e
       -0.20715053 -0.14613105 0.12245305 0.42588714
000270 ca 69 cc bd 16 fc a7 be cd 2b ce be 04 27 3a 3e
       -0.09981115 -0.32809514 -0.40267792 0.18178946
000280 45 7a 57 3e f2 64 0a be 23 68 92 3c 9c f6 af 3d
       0.21042736 -0.1351507 0.017871922 0.08591959
000290 00 6b bd 3c 4d 92 4c bd fb 8d 73 3d c8 ac 1b 3e
       0.02312231 -0.04994421 0.059461575 0.1520263
0002a0 9d a2 28 be d5 97 a7 3d f0 95 e7 bd 5c 1a 73 be
       -0.16468282 0.081832565 -0.11307895 -0.23740524
0002b0 3d 05 b6 bd 55 43 39 bd 37 7d 3c bf 38 48 81 bd
       -0.08887718 -0.04523023 -0.7362856 -0.06312603
0002c0 09 0e 42 bc 10 bb ad 3e 04 38 bd bc 8c cc 9e bd
       -0.011844167 0.3393178 -0.023098 -0.07753858
0002d0 aa 07 22 3f 5e 1d 38 3f 3d 85 2e be d5 0f b9 be
       0.63292944 0.7191981 -0.17043014 -0.3614489
0002e0 fe e1 f9 be 62 34 e7 3d 9b 42 42 bc c0 c7 12 bd
       -0.4880523 0.11289288 -0.0118567 -0.035835028
0002f0 db 91 1d 3e 42 6b bc bd a6 5f 9d bd 49 67 04 bd
       0.1538767 -0.09200145 -0.07684259 -0.032325063
000300 84 b0 0d bd 89 5c 5a be 44 93 33 bd f9 da 35 bf
       -0.034592167 -0.21324362 -0.043841615 -0.7103725
000310 d5 86 66 bf 91 2e 8a bf 35 9c 6e bf 01 d0 ae bf
       -0.9004949 -1.0795461 -0.93207103 -1.3657228
000320 1c 85 30 3f d0 be e0 3e 41 38 99 3e d2 2f c0 3d
       0.6895311 0.43895578 0.2992573 0.09384121
000330 3f d2 23 be 48 0d bf 3e 91 98 6f 3e 20 d6 9e be
       -0.15998171 0.3731482 0.23398043 -0.3102274
000340 76 d7 71 bc 46 d1 e9 bd d4 96 2c 3e da a5 9b bd
       -0.014760843 -0.11416869 0.16854411 -0.07599993
000350 9b ac 28 bd 36 fe 00 3e d5 f7 fe bd 3d 1e 67 bc
       -0.041180234 0.12596974 -0.12449614 -0.01410633
000360 91 c6 74 3d 9d 0b 13 bd c8 4d ae bd 40 5a cf 3c
       0.05975968 -0.035899747 -0.08510929 0.02531159
000370 a9 26 8b be 0c 53 8c bd 39 38 4a bf 43 d3 77 bf
       -0.27177933 -0.068517774 -0.7899204 -0.96806735
000380 a4 80 99 bf 7f 6c 49 3f bc 3b af 3d 62 8e 11 bf
       -1.1992383 0.78681177 0.08556315 -0.56857884
000390 b6 4e a7 be a1 27 bd be 9d c2 f7 3e 37 8a e1 be
       -0.3267724 -0.36944297 0.48390666 -0.44050762
0003a0 9b 36 02 3e d7 24 94 3e 36 93 88 be b0 72 b5 bd
       0.12716143 0.28934357 -0.26674813 -0.088597655
0003b0 3e 63 93 bd bd c9 fc bc bd 54 2d bd 9b da 92 3d
       -0.07196663 -0.030857915 -0.04231714 0.07170602
0003c0 d8 9f cc 3d 35 55 8d bc 1c d5 a1 bc 29 69 24 3d
       0.09991425 -0.017252544 -0.019754939 0.04013935
0003d0 6c 54 72 3e ed 11 07 3e 66 7a 97 3e e5 b6 c6 3e
       0.23665017 0.13190432 0.2958557 0.38811412
0003e0 10 04 9b 3e fc d3 db 3d fa 5c a7 be bd 92 17 3c
       0.30276537 0.10733792 -0.32688123 0.009251294
0003f0 e6 9b 89 3e 1e b5 85 3e 75 83 d7 3c 4a 48 df be
       0.26876754 0.26114744 0.0263078 -0.4360984
